…
av  e   poiu i pae os, p iiiii\ufffd pprpiiiiqrrttpes  ioiiittp pr ioiretttuide, eatlees , p\ufffd ilaes at ",
            "prompt": "Il y a bien longtemps , dans un pays lointain , "
        },
        "summary": "Model: \"model_21\"\n_________________________________________________________________\nLayer (type)                 Output Shape              Param #   \n=================================================================\ninput_30 (InputLayer)        [(None, 32)]              0         \n_________________________________________________________________\nembedding_29 (Embedding)     (None, 32, 64)            16448     \n_________________________________________________________________\ntf_op_layer_positional_encod [(None, 32, 64)]          0         \n_________________________________________________________________\nencoder_block_49 (EncoderBlo (None, 32, 64)            16896     \n_________________________________________________________________\nencoder_block_50 (EncoderBlo (None, 32, 64)            16896     \n_________________________________________________________________\nencoder_block_51 (EncoderBlo (None, 32, 64)            16896     \n_________________________________________________________________\nencoder_block_52 (EncoderBlo (None, 32, 64)            16896     \n_________________________________________________________________\nreshape_28 (Reshape)         (None, 2048)              0         \n_________________________________________________________________\ndense_266 (Dense)            (None, 64)                131136    \n_________________________________________________________________\ntf_op_layer_strided_slice_17 [(None, 64, 1)]           0         \n_________________________________________________________________\ntf_op_layer_matmul_8 (Tensor [(None, 257, 1)]          0         \n_________________________________________________________________\ntf_op_layer_strided_slice_18 [(None, 257)]             0   
…
ffd!\ufffd\ufffdg\ufffd\ufffd\ufffd,-\ufffd\ufffdpO\ufffdn\ufffd\u0011L\ufffd\u000b\ufffd1\ufffd\ufffd(\ufffd",
            "prompt": "Il y a bien longtemps , dans un pays lointain , "
        },
        "summary": "Model: \"model_4\"\n_________________________________________________________________\nLayer (type)                 Output Shape              Param #   \n=================================================================\ninput_5 (InputLayer)         [(None, 32)]              0         \n_________________________________________________________________\nembedding_4 (Embedding)      (None, 32, 64)            16384     \n_________________________________________________________________\ntf_op_layer_positional_encod [(None, 32, 64)]          0         \n_________________________________________________________________\nencoder_block_16 (EncoderBlo (None, 32, 64)            16896     \n_________________________________________________________________\nencoder_block_17 (EncoderBlo (None, 32, 64)            16896     \n_________________________________________________________________\nencoder_block_18 (EncoderBlo (None, 32, 64)            16896     \n_________________________________________________________________\nencoder_block_19 (EncoderBlo (None, 32, 64)            16896     \n_________________________________________________________________\nReshape (Reshape)            (None, 2048)              0         \n_________________________________________________________________\nlinear (Dense)               (None, 64)                131136    \n_________________________________________________________________\ntf_op_layer_strided_slice_8  [(None, 64, 1)]           0         \n_________________________________________________________________\ntf_op_layer_BatchMatMulV2_4  [(None, 256, 1)]          0         \n_________________________________________________________________\ntf_op_layer_strided_slice_9  [(None, 256)]             0   
…
